…
performing multifold to get weights ... 
model input shape : (600, 3)
===== MODEL 1 =====
Model: "model"
__________________________________________________________________________________________________
 Layer (type)                   Output Shape         Param #     Connected to                     
==================================================================================================
 input_1 (InputLayer)           [(None, 600, 3)]     0           []                               
                                                                                                  
 dense (Dense)                  (None, 600, 64)      256         ['input_1[0][0]']                
                                                                                                  
 dense_4 (Dense)                (None, 600, 64)      256         ['input_1[0][0]']                
                                                                                                  
 dense_8 (Dense)                (None, 600, 64)      256         ['input_1[0][0]']                
                                                                                                  
 dense_12 (Dense)               (None, 600, 64)      256         ['input_1[0][0]']                
                                                                                                  
 dense_16 (Dense)               (None, 600, 64)      256         ['input_1[0][0]']                
                                                                                                  
 dense_20 (Dense)               (None, 600, 64)      256         ['input_1[0][0]']                
                                                                                                  
 dense_24 (Dense)               (None, 600, 64)      256         ['input_1[0][0]']                
                                                                                                  
 dense_28 (Dense)               (None, 600, 64)      256         ['input_1[0][0]']                
                                                                                                  
 dense_32 (Dense)               (None, 600, 64)      256         ['input_1[0][0]']                
                                                                                                  
 dense_36 (Dense)               (None, 600, 64)      256         ['input_1[0][0]']                
                                                                                                  
 dense_1 (Dense)                (None, 600, 128)     8320        ['dense[0][0]']                  
                                                                                                  
 dense_5 (Dense)                (None, 600, 128)     8320        ['dense_4[0][0]']                
                                                                                                  
 dense_9 (Dense)                (None, 600, 128)     8320        ['dense_8[0][0]']                
                                                                                                  
 dense_13 (Dense)               (None, 600, 128)     8320        ['dense_12[0][0]']               
                                                                                                  
 dense_17 (Dense)               (None, 600, 128)     8320        ['dense_16[0][0]']               
                                                                                                  
 dense_21 (Dense)               (None, 600, 128)     8320        ['dense_20[0][0]']               
                                                                                                  
 dense_25 (Dense)               (None, 600, 128)     8320        ['dense_24[0][0]']               
                                                                                                  
 dense_29 (Dense)               (None, 600, 128)     8320        ['dense_28[0][0]']               
                                                                                                  
 dense_33 (Dense)               (None, 600, 128)     8320        ['dense_32[0][0]']               
                                                                                                  
 dense_37 (Dense)               (None, 600, 128)     8320        ['dense_36[0][0]']               
                                                                                                  
 dense_2 (Dense)                (None, 600, 64)      8256        ['dense_1[0][0]']                
                                                                                                  
 dense_6 (Dense)                (None, 600, 64)      8256        ['dense_5[0][0]']                
                                                                                                  
 dense_10 (Dense)               (None, 600, 64)      8256        ['dense_9[0][0]']                
                                                                                                  
 dense_14 (Dense)               (None, 600, 64)      8256        ['dense_13[0][0]']               
                                                                                                  
 dense_18 (Dense)               (None, 600, 64)      8256        ['dense_17[0][0]']               
                                                                                                  
 dense_22 (Dense)               (None, 600, 64)      8256        ['dense_21[0][0]']               
                                                                                                  
 dense_26 (Dense)               (None, 600, 64)      8256        ['dense_25[0][0]']               
                                                                                                  
 dense_30 (Dense)               (None, 600, 64)      8256        ['dense_29[0][0]']               
                                                                                                  
 dense_34 (Dense)               (None, 600, 64)      8256        ['dense_33[0][0]']               
                                                                                                  
 dense_38 (Dense)               (None, 600, 64)      8256        ['dense_37[0][0]']               
                                                                                                  
 flatten (Flatten)              (None, 38400)        0           ['dense_2[0][0]']                
                                                                                                  
 flatten_1 (Flatten)            (None, 38400)        0           ['dense_6[0][0]']                
                                                                                                  
 flatten_2 (Flatten)            (None, 38400)        0           ['dense_10[0][0]']               
                                                                                                  
 flatten_3 (Flatten)            (None, 38400)        0           ['dense_14[0][0]']               
                                                                                                  
 flatten_4 (Flatten)            (None, 38400)        0           ['dense_18[0][0]']               
                                                                                                  
 flatten_5 (Flatten)            (None, 38400)        0           ['dense_22[0][0]']               
                                                                                                  
 flatten_6 (Flatten)            (None, 38400)        0           ['dense_26[0][0]']               
                                                                                                  
 flatten_7 (Flatten)            (None, 38400)        0           ['dense_30[0][0]']               
                                                                                                  
 flatten_8 (Flatten)            (None, 38400)        0           ['dense_34[0][0]']               
                                                                                                  
 flatten_9 (Flatten)            (None, 38400)        0           ['dense_38[0][0]']               
                                                                                                  
 dense_3 (Dense)                (None, 1)            38401       ['flatten[0][0]']                
                                                                                                  
 dense_7 (Dense)                (None, 1)            38401       ['flatten_1[0][0]']              
                                                                                                  
 dense_11 (Dense)               (None, 1)            38401       ['flatten_2[0][0]']              
                                                                                                  
 dense_15 (Dense)               (None, 1)            38401       ['flatten_3[0][0]']              
                                                                                                  
 dense_19 (Dense)               (None, 1)            38401       ['flatten_4[0][0]']              
                                                                                                  
 dense_23 (Dense)               (None, 1)            38401       ['flatten_5[0][0]']              
                                                                                                  
 dense_27 (Dense)               (None, 1)            38401       ['flatten_6[0][0]']              
                                                                                                  
 dense_31 (Dense)               (None, 1)            38401       ['flatten_7[0][0]']              
                                                                                                  
 dense_35 (Dense)               (None, 1)            38401       ['flatten_8[0][0]']              
                                                                                                  
 dense_39 (Dense)               (None, 1)            38401       ['flatten_9[0][0]']              
                                                                                                  
 tf.math.reduce_mean (TFOpLambd  (None, 1)           0           ['dense_3[0][0]',                
 a)                                                               'dense_7[0][0]',                
                                                                  'dense_11[0][0]',               
                                                                  'dense_15[0][0]',               
                                                                  'dense_19[0][0]',               
…
